app/src/main/res/raw/model_cnn.tflite (tflite, 220480 bytes, 8 tensors)

output/bias f4 [7]
000000 d9 ff 03 3b a8 e5 46 3d ef f9 bd bd c0 45 27 bb
       0.002014151 0.04855886 -0.09276187 -0.0025523752
000010 1d 9e df bc ef c2 00 3c 79 22 98 bc
       -0.027297074 0.007858976 -0.018571125

dense_1/bias f4 [64]
000000 95 e0 63 bc da 62 c4 bc 18 c3 b6 39 7e f6 58 bc
       -0.013908525 -0.023972917 0.000348591 -0.013242362
000010 7c b6 af bc fd 77 ec bc 0a d3 60 3b f7 b3 80 bc
       -0.02144932 -0.028865809 0.0034305477 -0.015710814
000020 ed 78 a0 bc c5 a9 d4 bc d9 04 39 bc fe 97 55 bc
       -0.019588912 -0.025959859 -0.01129266 -0.013036726
000030 a1 4b f0 bc bf 42 a2 bc ab 9e 5b bd dd 58 6b bb
       -0.029332938 -0.019807218 -0.053618114 -0.003591112
000040 49 76 39 bd 0b 06 14 bd e5 4c 40 bd 7e d4 d1 bc
       -0.04527882 -0.036138576 -0.046948332 -0.02561402
000050 ea c3 02 bd 3b c2 93 bb 7a c2 4f bc 72 80 20 bd
       -0.03192512 -0.004509238 -0.012680644 -0.039184995
000060 8f 43 2b bd a2 92 42 3c d9 53 a5 bc 90 d7 7a bc
       -0.041812476 0.01187578 -0.020181583 -0.015310183
000070 f0 d3 66 bc 56 f8 b0 bc c6 76 cd 3c f1 b0 4d bc
       -0.014088616 -0.02160279 0.02508105 -0.012554393
000080 5c 24 06 bc b7 71 61 3c 02 29 1a bd 86 b5 11 bd
       -0.00818738 0.013760022 -0.037636764 -0.035573505
000090 47 a9 33 bd 49 30 0c bd 2c 4e 43 3c 59 c7 91 3d
       -0.043862607 -0.034225736 0.011920493 0.07118101
0000a0 ac bf 77 bb 30 95 f8 bc 30 79 e5 bc 40 71 0a 3b
       -0.0037803454 -0.030344576 -0.028011888 0.0021124631
0000b0 2d c7 4f bd 62 3a 3c bd 9b 19 5a bd ed e1 4e 3d
       -0.05072706 -0.045954116 -0.053247076 0.05050843
0000c0 46 6d c6 ba 15 cf 58 bb 34 0b 63 3b a3 a3 db bc
       -0.0015138767 -0.0033082415 0.0034644129 -0.026811427
0000d0 3e 0b 21 3d 02 1c 29 3d ee 33 ab 3b 5b 6a 2b 3b
       0.039317362 0.041286476 0.0052246964 0.0026155922
0000e0 3b e6 6f bd 6d 9f b5 3c 38 8b a8 bc 18 8c aa 3c
       -0.058569174 0.022170747 -0.020574197 0.020818755
0000f0 71 35 2c bd ad d4 2a bd f5 ba 23 bd 87 7a eb 3c
       -0.042043153 -0.04170673 -0.039973218 0.028744949

conv1d_1/bias f4 [64]
000000 03 45 11 bd c9 71 0d bd 1f ae 47 bd 72 30 48 bd
       -0.035466205 -0.034532342 -0.04875004 -0.048874326
000010 95 61 56 bc 24 7a 2f 3d 2a 1f 51 3b ee 27 f3 bc
       -0.013084789 0.04284109 0.0031909444 -0.029682126
000020 cc 4d 11 bc 2f 93 1a 3b 2c b7 ab bb 59 4f 2d bc
       -0.008868646 0.0023586263 -0.0052403416 -0.010578
000030 99 48 97 bc ab bc 4c bc 1f 49 3d bc db 90 33 bd
       -0.018467234 -0.012496154 -0.011553078 -0.043839317
000040 74 c8 1d bd df 05 40 bc 29 23 6b bd 3b 2c bf bc
       -0.038521245 -0.01172015 -0.05740658 -0.02333652
000050 4b 9c 3e bd 54 67 4d bb 45 2e 74 bd d3 c4 d5 bb
       -0.04653577 -0.0031342106 -0.05961444 -0.0065237074
000060 88 4b 0c 3d ef 8c c9 bc fd 54 1a bd 76 a3 00 bb
       0.03425172 -0.024603335 -0.037678707 -0.001962868
000070 54 08 c2 3c 92 79 66 bd 61 fb f7 bc f6 59 a8 bc
       0.023685612 -0.056268282 -0.030271234 -0.02055071
000080 99 06 e4 bc 0f da 3b bd 5b 6b b4 bc 31 04 ca bc
       -0.027835177 -0.045862254 -0.022023847 -0.024660202
000090 6e af be bc 5a fa f9 bc 58 87 12 bc 3d cc 88 bc
       -0.02327701 -0.030514885 -0.008943401 -0.01669895
0000a0 04 cb 76 bc 4b 7e 75 bb af bc 70 bc 6a 1e 3e bc
       -0.015063051 -0.003745931 -0.014693423 -0.011603931
0000b0 ac 42 92 bc 8a 18 07 bd b9 e6 27 bd 1e 25 ae 3c
       -0.017854057 -0.032982387 -0.04099152 0.021257933
0000c0 0b cf f8 bc 4c f9 28 bd e1 fb f8 3c 55 c6 1c bd
       -0.030372163 -0.041253373 0.030393543 -0.03827508
0000d0 f6 63 d3 bc 60 a3 0a bd 2c 7c 26 bd ca f9 00 bd
       -0.025804501 -0.033847213 -0.040645763 -0.031488217
0000e0 d9 7f 5e bc 65 3d bb bc a8 58 4e bd 72 04 2c bd
       -0.013580286 -0.022856424 -0.050377518 -0.041996427
0000f0 9b cc d2 bc 85 2d e7 39 84 f1 ec bc 5d 0a c0 bc
       -0.02573233 0.00044093668 -0.028923757 -0.023442442

conv1d/bias f4 [64]
000000 73 7c 28 bd f4 34 78 bc fa 42 c7 bc b4 ef 7b 3c
       -0.04113431 -0.015149344 -0.02432393 0.015376974
000010 5c 2d fc bc ec 7d b3 ba eb 6c 1f 3d 7b ac 57 bc
       -0.030783348 -0.0013694144 0.03892223 -0.013163681
000020 be 56 bb 3b a5 f6 06 bd 04 e5 6b 3c 38 65 4d 3c
       0.0057171276 -0.032950062 0.014397863 0.012536339
000030 15 9f 07 3d 89 98 87 bd 77 7a 2b bd 0d 83 72 bc
       0.033110697 -0.06620891 -0.04186484 -0.014801753
000040 0b 77 9b bd 49 7e e7 bc 0e 01 57 bd ba 1d ee bc
       -0.07591065 -0.02825846 -0.05249124 -0.02906691
000050 b5 07 90 bc c2 de 8d bc 4e c2 da 3c 4e ae 01 bd
       -0.0175818 -0.017318133 0.02670398 -0.03166037
000060 03 1a 1f 3d 2a 04 3f bc 96 32 01 bd a6 73 34 3c
       0.038843166 -0.011658708 -0.031542383 0.011013901
000070 e2 04 92 bc 54 e5 eb bb bf 6f 4f bd 32 2b d4 bc
       -0.017824594 -0.007198969 -0.05064368 -0.025899503
000080 2e 38 e3 bc 84 38 8c bc 4a 77 b6 bc 2a 32 7c bd
       -0.02773675 -0.017116793 -0.022273678 -0.061571278
000090 f7 a3 ac bd 12 7c 79 bd 85 2c 74 bd 50 e4 a9 bc
       -0.08429711 -0.06090934 -0.05961277 -0.02073875
0000a0 32 1a bc bd 65 f3 99 bd 73 81 de bc 3c 02 71 bd
       -0.09184684 -0.07517127 -0.027161336 -0.05884002
0000b0 ce 76 cf bc b9 f6 05 ba 2a b2 12 bd bc e9 8f bd
       -0.025325205 -0.0005110312 -0.03581444 -0.07027003
0000c0 cd e1 cd 3b f8 58 d9 bc 82 fc a0 bd 74 5e 5d bd
       0.006283021 -0.026531681 -0.07860662 -0.054045156
0000d0 bc 7e 79 bd 62 7f a2 3d 88 b7 63 bd 7d dd 16 bc
       -0.06091188 0.079344526 -0.05559495 -0.00920808
0000e0 86 d4 2a 3c c4 9c 47 bd d5 b1 2f bc 1d dc 84 bd
       0.010426646 -0.048733488 -0.010723551 -0.06487296
0000f0 d0 9c d6 bc 55 f2 73 3d 42 42 0f bd ca 44 47 bd
       -0.02619782 0.059557278 -0.034975298 -0.048649587

sequential_4/dense_1/MatMul i1 [64, 3072] scale=0.0036409975 zero_point=0
000000 06 05 07 09 02 02 02 fd 00 02 f9 01 f6 fb f7 ff
       0.021845985 0.018204987 0.025486981 0.032768976 0.007281995 0.007281995 0.007281995 -0.010922993 0.0 0.007281995 -0.025486981 0.0036409975 -0.036409974 -0.018204987 -0.032768976 -0.0036409975
000010 fd f9 f4 08 02 fb 03 01 f7 fe f3 09 01 00 fc fd
       -0.010922993 -0.025486981 -0.04369197 0.02912798 0.007281995 -0.018204987 0.010922993 0.0036409975 -0.032768976 -0.007281995 -0.04733297 0.032768976 0.0036409975 0.0 -0.01456399 -0.010922993
000020 f8 ff f4 f5 08 04 fd fe 0c f6 f6 01 04 09 08 0a
       -0.02912798 -0.0036409975 -0.04369197 -0.040050972 0.02912798 0.01456399 -0.010922993 -0.007281995 0.04369197 -0.036409974 -0.036409974 0.0036409975 0.01456399 0.032768976 0.02912798 0.036409974
000030 14 08 f3 03 ff f2 ff 02 fc 1d 00 01 f8 ff 02 f3
       0.07281995 0.02912798 -0.04733297 0.010922993 -0.0036409975 -0.050973963 -0.0036409975 0.007281995 -0.01456399 0.10558893 0.0 0.0036409975 -0.02912798 -0.0036409975 0.007281995 -0.04733297
000040 09 fe f8 fe fc f2 04 00 08 f8 06 08 f2 fa 0d f3
       0.032768976 -0.007281995 -0.02912798 -0.007281995 -0.01456399 -0.050973963 0.01456399 0.0 0.02912798 -0.02912798 0.021845985 0.02912798 -0.050973963 -0.021845985 0.04733297 -0.04733297
000050 03 fb 02 0a f7 07 fc fa f7 f2 07 07 fa 0a 07 fa
       0.010922993 -0.018204987 0.007281995 0.036409974 -0.032768976 0.025486981 -0.01456399 -0.021845985 -0.032768976 -0.050973963 0.025486981 0.025486981 -0.021845985 0.036409974 0.025486981 -0.021845985
000060 00 06 f9 f8 fa fa 09 f7 07 f2 06 00 0d 00 01 05
       0.0 0.021845985 -0.025486981 -0.02912798 -0.021845985 -0.021845985 0.032768976 -0.032768976 0.025486981 -0.050973963 0.021845985 0.0 0.04733297 0.0 0.0036409975 0.018204987
000070 15 ff fd fb fd 06 fb f8 05 09 fc 05 fe f5 f8 f9
       0.07646095 -0.0036409975 -0.010922993 -0.018204987 -0.010922993 0.021845985 -0.018204987 -0.02912798 0.018204987 0.032768976 -0.01456399 0.018204987 -0.007281995 -0.040050972 -0.02912798 -0.025486981
000080 09 05 01 f4 f7 fa fa fb 07 fa ff 01 f8 f8 0b f7
       0.032768976 0.018204987 0.0036409975 -0.04369197 -0.032768976 -0.021845985 -0.021845985 -0.018204987 0.025486981 -0.021845985 -0.0036409975 0.0036409975 -0.02912798 -0.02912798 0.040050972 -0.032768976
000090 f2 01 fa 07 08 02 00 fe 01 0f 09 f7 f9 f9 ff 05
       -0.050973963 0.0036409975 -0.021845985 0.025486981 0.02912798 0.007281995 0.0 -0.007281995 0.0036409975 0.05461496 0.032768976 -0.032768976 -0.025486981 -0.025486981 -0.0036409975 0.018204987
0000a0 fc f9 fe fb fd 08 09 f7 0a fb f6 00 f5 09 f6 06
       -0.01456399 -0.025486981 -0.007281995 -0.018204987 -0.010922993 0.02912798 0.032768976 -0.032768976 0.036409974 -0.018204987 -0.036409974 0.0 -0.040050972 0.032768976 -0.036409974 0.021845985
0000b0 f9 04 02 ff 06 fb fd fb 01 0a 0a f8 00 fa f8 ff
       -0.025486981 0.01456399 0.007281995 -0.0036409975 0.021845985 -0.018204987 -0.010922993 -0.018204987 0.0036409975 0.036409974 0.036409974 -0.02912798 0.0 -0.021845985 -0.02912798 -0.0036409975
0000c0 fb 09 fb f9 fb 05 f0 00 01 07 f3 0b fc 08 0c f8
       -0.018204987 0.032768976 -0.018204987 -0.025486981 -0.018204987 0.018204987 -0.05825596 0.0 0.0036409975 0.025486981 -0.04733297 0.040050972 -0.01456399 0.02912798 0.04369197 -0.02912798
0000d0 f5 fe f9 09 f8 ff fd fa fd 03 07 0d f2 f9 08 fb
       -0.040050972 -0.007281995 -0.025486981 0.032768976 -0.02912798 -0.0036409975 -0.010922993 -0.021845985 -0.010922993 0.010922993 0.025486981 0.04733297 -0.050973963 -0.025486981 0.02912798 -0.018204987
0000e0 08 07 02 f7 fa 07 f7 0a 0d 08 ef 00 fe f8 f8 09
       0.02912798 0.025486981 0.007281995 -0.032768976 -0.021845985 0.025486981 -0.032768976 0.036409974 0.04733297 0.02912798 -0.061896957 0.0 -0.007281995 -0.02912798 -0.02912798 0.032768976
0000f0 07 06 f1 00 fb f3 fc f2 fe fb fe fa 08 f9 f8 02
       0.025486981 0.021845985 -0.05461496 0.0 -0.018204987 -0.04733297 -0.01456399 -0.050973963 -0.007281995 -0.018204987 -0.007281995 -0.021845985 0.02912798 -0.025486981 -0.02912798 0.007281995

sequential_4/output/MatMul f4 [7, 64]
000000 e1 12 67 bc d0 14 8e 3e d9 2f 8a be a2 24 24 be
       -0.014103622 0.27750254 -0.2698963 -0.160296
000010 df 57 04 3c f8 ac ce bd 13 29 13 be 98 60 0a be
       0.008077591 -0.10091585 -0.14371137 -0.1351341
000020 85 04 79 bd 14 c2 d8 bd 76 b1 33 3b e0 4a 52 be
       -0.060795326 -0.105838925 0.0027419007 -0.20536375
000030 45 9f 71 be 9a 19 e1 bd 36 ef 03 3e ee b7 07 be
       -0.23595913 -0.10991211 0.1288422 -0.13253757
000040 f7 8b ee bd ad 50 a5 3d 7d b0 06 be b7 cf 46 3e
       -0.1164779 0.08072028 -0.13153262 0.19415174
000050 c6 7f 4b 3e 95 2d 28 be 72 1f ad 3d c0 74 9b 3c
       0.1987296 -0.16423638 0.08453263 0.01897657
000060 f9 e3 f4 bd d4 f0 6e be 1e 62 e6 be 5a 7c 86 be
       -0.11957545 -0.23334056 -0.44996732 -0.26266748
000070 09 92 9e be eb e4 92 bd f7 ec f2 3d 95 5b 04 3e
       -0.3097079 -0.07172569 0.11861604 0.12925561
000080 8f ee 38 be 28 62 97 bd 81 d2 46 3e bf a6 72 be
       -0.18059753 -0.07391769 0.19416238 -0.23696421
000090 20 e2 49 be 77 be 2c be 4a 7d 6e 3e 8d 05 76 3e
       -0.19715166 -0.16869532 0.23289981 0.24025555
0000a0 9e 5c 8c be 78 10 b8 be 67 c8 81 be 56 eb ad 3d
       -0.2741441 -0.35950065 -0.25348207 0.084921524
0000b0 64 cf ac bd b4 04 ea bd f5 7b 33 be 54 50 e6 3d
       -0.08437994 -0.11426678 -0.17527755 0.1124579
0000c0 67 be 56 3c 44 ed 15 be 1f 56 2c 3e 6d d9 89 3d
       0.013106919 -0.14641291 0.16829728 0.06730924
0000d0 38 de e6 bd 39 a6 1e 3e d7 bc 4c 3e e4 62 9e be
       -0.112728536 0.15493096 0.19993912 -0.30934823
0000e0 38 56 7a 3c 4d fc eb bd a8 ed ae bd 56 f4 7a bd
       0.015279345 -0.11522732 -0.08541423 -0.061268173
0000f0 a7 fc fc 3d 10 45 04 3d 31 0c 0d bd d2 75 72 be
       0.12352877 0.032292426 -0.034435455 -0.23677757
000100 8c 80 92 be 99 81 b1 3d 45 eb ea bd 25 2c 21 bd
       -0.28613698 0.08667297 -0.11470655 -0.03934874
000110 4e b8 4d 3e 78 06 09 3e 2e 70 92 bd 8b 75 79 3e
       0.20089838 0.13381374 -0.07150303 0.24361245
000120 ce d7 22 3e 4f 73 15 be b1 ed 4a bd 85 d1 39 3c
       0.15902635 -0.14594768 -0.049543086 0.011341457
000130 a0 b8 b5 be 57 6a 46 be 9c 5d 6c 3e 4c 94 2c be
       -0.3549242 -0.19376503 0.23082584 -0.16853446
000140 25 bf 44 3e f9 c3 1b be 68 e0 03 be ba d7 a3 bd
       0.19213541 -0.15211476 -0.12878573 -0.08000131
000150 fe b1 09 3d 34 78 35 bc c7 23 4e 3e 62 1e 61 be
       0.033617012 -0.011076022 0.20130835 -0.21984246
000160 48 65 33 be ee 5a 81 be 15 b3 b0 be 47 e2 76 be
       -0.17519104 -0.25264686 -0.3451163 -0.24109755
000170 7e 27 8f bd d6 88 b2 3d 8e 71 ac be e1 6d 7f 3e
       -0.069899544 0.08717506 -0.33680385 0.24944259
000180 93 27 0c 3e 7c 6c 13 3d e5 92 17 3e 8e ac 3a 3d
       0.13686971 0.03599213 0.1480213 0.045574717
000190 89 0b 07 be 45 74 c8 bd 2a 95 cd 3c 8b 8b 5a bd
       -0.13187994 -0.09787802 0.025095541 -0.053355735
0001a0 6d 22 9b be 05 46 e6 bd aa 83 76 be 4c 00 06 3d
       -0.30299702 -0.11243824 -0.24073663 0.032715127
0001b0 6f 23 46 be 9e 13 97 bd 60 c3 ff 3c 33 d7 b9 be
       -0.19349454 -0.073767886 0.031221092 -0.36296996
0001c0 02 f8 77 bd fe ab de 3d 0c 1f d8 3d 3b 4e f9 bd
       -0.060539253 0.10872649 0.10552797 -0.121731244
0001d0 2c 9a 6b 3e 71 8a 72 3e 93 b4 23 3d eb 73 e2 bd
       0.2300803 0.23685624 0.03996713 -0.11057266
0001e0 20 82 24 be 9a b0 46 3e 0b d1 c5 bb 44 c1 89 bd
       -0.16065264 0.19403306 -0.0060368828 -0.067263156
0001f0 54 f2 5c 3e 23 85 81 bd 01 e2 77 be b6 31 84 be
       0.21576816 -0.06324222 -0.24207307 -0.25819176
000200 53 74 40 3e 92 aa 3e 3d 8b 48 ef 3b b4 22 84 be
       0.18794374 0.046549387 0.007302349 -0.25807726
000210 9a d9 e7 3d fd 37 11 be 6a c3 72 bc 6b 2b 2f 3e
       0.11320801 -0.14181514 -0.014817098 0.17106406
000220 c3 64 ae bd 5d 0c 19 3e 49 54 88 be 5c 2c 98 be
       -0.085153125 0.14946122 -0.26626804 -0.29721344
000230 d0 9a 8a be 8b 79 38 3d 1c 56 05 be a3 a0 2d be
       -0.27071238 0.045037787 -0.1302113 -0.1695581
000240 5a 94 d5 3d 05 a3 9c 3d 21 e6 88 3d 20 64 76 3e
       0.104286864 0.07648281 0.066845186 0.24061632
000250 10 cf ae 3d 6c 4a 9c bd f3 aa 8d bd 22 5c 52 be
       0.08535588 -0.07631382 -0.069173716 -0.20542958
000260 02 ad 63 3e c9 81 8b 3d 93 47 36 3e eb 6f 93 bc
       0.22233966 0.06811864 0.17800741 -0.017997703
000270 5d e0 77 be ed df ed 3d 76 0b 4b bd ff 80 26 3e
       -0.24206682 0.11614976 -0.049571477 0.16260146
000280 65 b9 85 be f9 dc 81 be f4 90 6d be 8e b3 e2 3d
       -0.26118007 -0.253639 -0.23199826 0.110694036
000290 3d 6c 59 3e 7f 16 78 bd 15 3c 38 be ea 3c fc bd
       0.21232696 -0.06056833 -0.1799167 -0.12316306
0002a0 41 a2 1e 3e 03 36 85 3e 0d f4 1b 3e 1d 2c c0 3d
       0.15491582 0.2601777 0.15229817 0.09383414
0002b0 98 d2 54 3e 41 d2 41 bd 98 a1 95 3d 0b 6e 2e be
       0.2078346 -0.047319654 0.07306212 -0.17034166
0002c0 2a b6 c3 bd 64 ce 39 be 51 8f 74 3e 98 39 44 3d
       -0.095562294 -0.18145138 0.23882796 0.04790649
0002d0 3d 44 6d 3d 00 3e 95 bd 2c bc 7b be d9 b6 5d bd
       0.057926405 -0.07287216 -0.245835 -0.054129455
0002e0 94 b9 1c 3e ce 72 c9 3d 53 cd 19 be 21 50 59 be
       0.15305167 0.098363504 -0.15019731 -0.21221973
0002f0 6a a8 ea bd a6 57 86 3e 41 5e 27 3e ab 7c 90 3e
       -0.11457904 0.26238745 0.16344549 0.28220114
000300 06 79 cb 3d 65 56 86 3e e2 54 86 be 0e 63 74 3e
       0.09935193 0.2623779 -0.26236635 0.23865911
000310 6b 82 eb 3d 24 b3 46 3e 72 02 59 be 89 61 e6 3d
       0.11499485 0.19404274 -0.21192339 0.11249072
000320 28 69 14 bd 75 14 10 3e 01 0e 79 be 85 f7 6b be
       -0.036233097 0.14070304 -0.24321748 -0.2304364
000330 c0 42 aa bd ca 27 4a bd 89 be d7 3d 7c b9 96 3c
       -0.08313513 -0.049354352 0.105343886 0.018398993
000340 14 7f 41 3e 45 a1 67 be 26 bf 39 3e a1 94 30 3e
       0.18896133 -0.22620113 0.18139324 0.17244197
000350 7d 8c bd bc 63 cc 92 be 79 13 c5 bc 6b 53 0b be
       -0.02313828 -0.2867156 -0.024057137 -0.1360604
000360 98 20 1a be 24 0c 41 bc ea 69 bf bd ae c3 83 be
       -0.15051496 -0.01178268 -0.093463734 -0.2573523
000370 c6 e4 5a 3e e4 25 3f be 94 55 2f 3e a1 2c 85 bd
       0.21376333 -0.18666798 0.17122489 -0.06502653
000380 84 5c 37 3d a6 9c 56 be d7 0f b5 3d 4f e1 99 be
       0.044765964 -0.20958194 0.08840912 -0.3005471
000390 4c 65 16 3e ca 81 f9 3d d2 ec 8e 3d f6 8e 86 3e
       0.14687079 0.121829584 0.06978764 0.26280946
0003a0 1b 08 bc bc ec e3 37 3d 2e 17 44 bd 36 b7 75 be
       -0.022953084 0.044895098 -0.04787367 -0.2399567
0003b0 be f7 83 be 81 6a a7 bc 38 27 b9 bb ca 6c 10 bd
       -0.2577495 -0.020436527 -0.005650427 -0.03526
0003c0 98 9c 46 3e 2e 09 37 3e ea 71 47 3e 46 64 8e be
       0.19395673 0.17874596 0.19477049 -0.27810878
0003d0 58 c2 fe 3c 14 49 87 be 1a 65 6b be a2 c5 8a be
       0.03109853 -0.26422942 -0.22987786 -0.27103907
0003e0 8e 87 9c 3d 74 4c 2a be a1 18 65 be b2 cb 66 bc
       0.076430425 -0.16630727 -0.22372676 -0.014086651
0003f0 2a 86 b9 bd d2 23 b6 3d bf a8 de bb fb a0 f1 3d
       -0.09058793 0.08893551 -0.0067950184 0.11798283

sequential_4/conv1d/Conv1D i1 [64, 1, 3, 9]
000000 04 e0 1b cc ee dc b3 4f d1 1d 52 ee 5f 37 c4 92
       4 -32 27 -52 -18 -36 -77 79 -47 29 82 -18 95 55 -60 -110
000010 13 2e c8 f7 f0 1a f1 81 fa 3a 1a 28 ec 54 5f 2b
       19 46 -56 -9 -16 26 -15 -127 -6 58 26 40 -20 84 95 43
000020 ea d9 e2 dc 17 3b 51 81 82 5e 95 f2 7a 1b dd 75
       -22 -39 -30 -36 23 59 81 -127 -126 94 -107 -14 122 27 -35 117
000030 25 de 63 23 63 1a 1a de dd fd 2d bc 81 3c f0 e3
       37 -34 99 35 99 26 26 -34 -35 -3 45 -68 -127 60 -16 -29
000040 21 02 b2 9d 09 98 22 ca fd 2d bc df 31 9f b2 2a
       33 2 -78 -99 9 -104 34 -54 -3 45 -68 -33 49 -97 -78 42
000050 31 f4 26 d3 3f 0e b3 7f a9 cb 0c 52 f2 e8 c6 a9
       49 -12 38 -45 63 14 -77 127 -87 -53 12 82 -14 -24 -58 -87
000060 32 23 19 20 58 be 0e da ad e5 e3 cb e3 d4 fa e3
       50 35 25 32 88 -66 14 -38 -83 -27 -29 -53 -29 -44 -6 -29
000070 e9 44 17 7b f5 c7 2e 11 ba d4 bb de 7f 2f e3 41
       -23 68 23 123 -11 -57 46 17 -70 -44 -69 -34 127 47 -29 65
000080 e9 ad cb 8d 37 34 5b 2a e9 5d 1d ed cd 0b 0a 43
       -23 -83 -53 -115 55 52 91 42 -23 93 29 -19 -51 11 10 67
000090 b4 b3 56 2f fe 3f 34 26 aa 11 bd 67 fa 32 10 7f
       -76 -77 86 47 -2 63 52 38 -86 17 -67 103 -6 50 16 127
0000a0 e4 fb d3 23 55 b2 a8 dc 09 8d 93 24 b7 d6 d8 81
       -28 -5 -45 35 85 -78 -88 -36 9 -115 -109 36 -73 -42 -40 -127
0000b0 b6 a7 ff b1 b8 09 78 ef 02 34 b9 96 92 cd fd 66
       -74 -89 -1 -79 -72 9 120 -17 2 52 -71 -106 -110 -51 -3 102
0000c0 12 44 fc ed 1b f6 1f 14 7f ec ed e2 0e 02 10 13
       18 68 -4 -19 27 -10 31 20 127 -20 -19 -30 14 2 16 19
0000d0 e0 5b 24 1a e0 45 21 fd d0 64 df c1 32 3b b8 34
       -32 91 36 26 -32 69 33 -3 -48 100 -33 -63 50 59 -72 52
0000e0 bd 63 0a e5 00 17 f9 8f f6 f4 d8 7f c2 5d 32 43
       -67 99 10 -27 0 23 -7 -113 -10 -12 -40 127 -62 93 50 67
0000f0 28 3c ed 01 5b 14 a1 cd 32 cc 91 c1 ed 5d 38 46
       40 60 -19 1 91 20 -95 -51 50 -52 -111 -63 -19 93 56 70

sequential_4/conv1d_1/Conv1D i1 [64, 1, 3, 64]
000000 1f 3b 90 09 44 fb 24 51 fa 05 c0 eb a9 21 cc 2e
       31 59 -112 9 68 -5 36 81 -6 5 -64 -21 -87 33 -52 46
000010 56 0c c8 ee f1 e4 13 bd 4e 64 18 8b 22 3b d6 c6
       86 12 -56 -18 -15 -28 19 -67 78 100 24 -117 34 59 -42 -58
000020 e2 b5 fc 9c fa ba d7 f0 e4 5a 25 40 ed a3 4f 27
       -30 -75 -4 -100 -6 -70 -41 -16 -28 90 37 64 -19 -93 79 39
000030 cd 1c 2e 14 49 ce 38 c3 84 41 b5 d3 bc 07 e0 36
       -51 28 46 20 73 -50 56 -61 -124 65 -75 -45 -68 7 -32 54
000040 91 f8 c5 1a c8 48 c5 94 ad 23 1b 44 0b 0e ee eb
       -111 -8 -59 26 -56 72 -59 -108 -83 35 27 68 11 14 -18 -21
000050 24 5b 04 2f 1a 59 f5 b9 98 ec 49 11 33 ca 54 36
       36 91 4 47 26 89 -11 -71 -104 -20 73 17 51 -54 84 54
000060 23 a1 c0 93 b4 a0 08 c5 a5 2f 81 4e 34 8d d0 91
       35 -95 -64 -109 -76 -96 8 -59 -91 47 -127 78 52 -115 -48 -111
000070 1f b9 d2 11 2d 2c 0f d0 5c 0d d7 54 87 c9 36 2e
       31 -71 -46 17 45 44 15 -48 92 13 -41 84 -121 -55 54 46
000080 ee bf 0e 3b 20 25 48 97 11 b9 c4 12 9b 9c d2 c8
       -18 -65 14 59 32 37 72 -105 17 -71 -60 18 -101 -100 -46 -56
000090 f3 df b1 de 12 86 95 3d 82 ea 2d ce df 40 2f 0e
       -13 -33 -79 -34 18 -122 -107 61 -126 -22 45 -50 -33 64 47 14
0000a0 f0 b9 bd 82 fe 8d a1 39 bd 8a 0a 84 fd c4 47 ea
       -16 -71 -67 -126 -2 -115 -95 57 -67 -118 10 -124 -3 -60 71 -22
0000b0 46 f8 e7 d3 1e ae a2 40 04 a7 07 21 b7 89 d0 f2
       70 -8 -25 -45 30 -82 -94 64 4 -89 7 33 -73 -119 -48 -14
0000c0 c3 f7 fe 11 20 0c a4 e9 47 43 45 d2 3d e3 23 93
       -61 -9 -2 17 32 12 -92 -23 71 67 69 -46 61 -29 35 -109
0000d0 00 de b0 bb 0b f9 e3 da 2f 1c 0a 25 e2 2d 27 bc
       0 -34 -80 -69 11 -7 -29 -38 47 28 10 37 -30 45 39 -68
0000e0 02 e5 d3 a2 d1 b1 98 d0 1b 90 2f 09 8c 0f 04 03
       2 -27 -45 -94 -47 -79 -104 -48 27 -112 47 9 -116 15 4 3
0000f0 56 15 b6 d1 1c 69 d0 02 11 0c f9 2f 00 a9 2f 45
       86 21 -74 -47 28 105 -48 2 17 12 -7 47 0 -87 47 69
